…
4.2 M     Trainable params
6.6 B     Non-trainable params
6.6 B     Total params
26,446.348Total estimated model params size (MB)
SLURM auto-requeueing enabled. Setting signal handlers.
SLURM auto-requeueing enabled. Setting signal handlers.
SLURM auto-requeueing enabled. Setting signal handlers.
SLURM auto-requeueing enabled. Setting signal handlers.
trainable params: 4,243,468 || all params: 6,611,587,084 || trainable%: 0.06418229006268655
PeftModelForSequenceClassification(
  (base_model): LoraModel(
    (model): LlamaForSequenceClassification(
      (model): LlamaModel(
        (embed_tokens): Embedding(32000, 4096, padding_idx=0)
        (layers): ModuleList(
          (0-31): 32 x LlamaDecoderLayer(
            (self_attn): LlamaAttention(
              (q_proj): Linear(
                in_features=4096, out_features=4096, bias=False
                (lora_dropout): ModuleDict(
                  (default): Dropout(p=0.05, inplace=False)
                )
                (lora_A): ModuleDict(
                  (default): Linear(in_features=4096, out_features=8, bias=False)
                )
                (lora_B): ModuleDict(
                  (default): Linear(in_features=8, out_features=4096, bias=False)
                )
                (lora_embedding_A): ParameterDict()
                (lora_embedding_B): ParameterDict()
              )
              (k_proj): Linear(in_features=4096, out_features=4096, bias=False)
              (v_proj): Linear(
                in_features=4096, out_features=4096, bias=False
                (lora_dropout): ModuleDict(
                  (default): Dropout(p=0.05, inplace=False)
                )
                (lora_A): ModuleDict(
                  (default): Linear(in_features=4096, out_features=8, bias=False)
                )
                (lora_B): ModuleDict(
                  (default): Linear(in_features=8, out_features=4096, bias=False)
                )
                (lora_embedding_A): ParameterDict()
                (lora_embedding_B): ParameterDict()
              )
              (o_proj): Linear(in_features=4096, out_features=4096, bias=False)
              (rotary_emb): LlamaRotaryEmbedding()
            )
            (mlp): LlamaMLP(
              (gate_proj): Linear(in_features=4096, out_features=11008, bias=False)
              (up_proj): Linear(in_features=4096, out_features=11008, bias=False)
              (down_proj): Linear(in_features=11008, out_features=4096, bias=False)
              (act_fn): SiLUActivation()
            )
            (input_layernorm): LlamaRMSNorm()
            (post_attention_layernorm): LlamaRMSNorm()
          )
        )
        (norm): LlamaRMSNorm()
      )
      (score): ModulesToSaveWrapper(
        (original_module): Linear(in_features=4096, out_features=6, bias=True)
        (modules_to_save): ModuleDict(
          (default): Linear(in_features=4096, out_features=6, bias=True)
        )
      )
    )
  )
)
MyLLamaModel(
  (model): PeftModelForSequenceClassification(
    (base_model): LoraModel(
      (model): LlamaForSequenceClassification(
        (model): LlamaModel(
          (embed_tokens): Embedding(32000, 4096, padding_idx=0)
          (layers): ModuleList(
            (0-31): 32 x LlamaDecoderLayer(
              (self_attn): LlamaAttention(
                (q_proj): Linear(
                  in_features=4096, out_features=4096, bias=False
                  (lora_dropout): ModuleDict(
                    (default): Dropout(p=0.05, inplace=False)
                  )
                  (lora_A): ModuleDict(
                    (default): Linear(in_features=4096, out_features=8, bias=False)
                  )
                  (lora_B): ModuleDict(
                    (default): Linear(in_features=8, out_features=4096, bias=False)
                  )
                  (lora_embedding_A): ParameterDict()
                  (lora_embedding_B): ParameterDict()
                )
                (k_proj): Linear(in_features=4096, out_features=4096, bias=False)
                (v_proj): Linear(
                  in_features=4096, out_features=4096, bias=False
                  (lora_dropout): ModuleDict(
                    (default): Dropout(p=0.05, inplace=False)
                  )
                  (lora_A): ModuleDict(
                    (default): Linear(in_features=4096, out_features=8, bias=False)
                  )
                  (lora_B): ModuleDict(
                    (default): Linear(in_features=8, out_features=4096, bias=False)
                  )
                  (lora_embedding_A): ParameterDict()
                  (lora_embedding_B): ParameterDict()
                )
                (o_proj): Linear(in_features=4096, out_features=4096, bias=False)
                (rotary_emb): LlamaRotaryEmbedding()
              )
              (mlp): LlamaMLP(
                (gate_proj): Linear(in_features=4096, out_features=11008, bias=False)
                (up_proj): Linear(in_features=4096, out_features=11008, bias=False)
                (down_proj): Linear(in_features=11008, out_features=4096, bias=False)
                (act_fn): SiLUActivation()
              )
              (input_layernorm): LlamaRMSNorm()
              (post_attention_layernorm): LlamaRMSNorm()
            )
          )
          (norm): LlamaRMSNorm()
        )
        (score): ModulesToSaveWrapper(
          (original_module): Linear(in_features=4096, out_features=6, bias=True)
          (modules_to_save): ModuleDict(
            (default): Linear(in_features=4096, out_features=6, bias=True)
          )
        )
      )
    )
  )
)
模型获取成功
**************************************************
数据开始加载
已经map了啊
数据加载成功
**************************************************
模型开始训练
{'label': tensor(0), 'input_ids': tensor([    1,   474,  5360,  4344,   269, 12845, 15717,  1058,  1016,   260,
         4459,   278,   817,   304,   270,  3774,  1623,  2712,   363,   413,
…
